…
8 --decoder_type fc --loss_type cd --model_version model_v2 --kldiv_loss_weight 1e-4 --probabilistic --overwrite

Random Seed: 3124256514
Using device: cuda:0

[PartNetPartDataset 4489] data_dir: ../../data/PartNetShapeData-Chair/train, num_point: 2048
[PartNetPartDataset 617] data_dir: ../../data/PartNetShapeData-Chair/val, num_point: 2048
Using FCDecoder-NoBN!

Network(
  (encoder): PointNet2(
    (SA_modules): ModuleList(
      (0): PointnetSAModule(
        (groupers): ModuleList(
          (0): QueryAndGroup()
        )
        (mlps): ModuleList(
          (0): Sequential(
            (0): Conv2d(6, 64, kernel_size=(1, 1), stride=(1, 1), bias=False)
            (1): BatchNorm2d(64, eps=1e-05, momentum=0.1, affine=True, track_running_stats=True)
            (2): ReLU(inplace=True)
            (3): Conv2d(64, 64, kernel_size=(1, 1), stride=(1, 1), bias=False)
            (4): BatchNorm2d(64, eps=1e-05, momentum=0.1, affine=True, track_running_stats=True)
            (5): ReLU(inplace=True)
            (6): Conv2d(64, 128, kernel_size=(1, 1), stride=(1, 1), bias=False)
            (7): BatchNorm2d(128, eps=1e-05, momentum=0.1, affine=True, track_running_stats=True)
            (8): ReLU(inplace=True)
          )
        )
      )
      (1): PointnetSAModule(
        (groupers): ModuleList(
          (0): QueryAndGroup()
        )
        (mlps): ModuleList(
          (0): Sequential(
            (0): Conv2d(131, 128, kernel_size=(1, 1), stride=(1, 1), bias=False)
            (1): BatchNorm2d(128, eps=1e-05, momentum=0.1, affine=True, track_running_stats=True)
            (2): ReLU(inplace=True)
            (3): Conv2d(128, 128, kernel_size=(1, 1), stride=(1, 1), bias=False)
            (4): BatchNorm2d(128, eps=1e-05, momentum=0.1, affine=True, track_running_stats=True)
            (5): ReLU(inplace=True)
            (6): Conv2d(128, 256, kernel_size=(1, 1), stride=(1, 1), bias=False)
            (7): BatchNorm2d(256, eps=1e-05, momentum=0.1, affine=True, track_running_stats=True)
            (8): ReLU(inplace=True)
          )
        )
      )
      (2): PointnetSAModule(
        (groupers): ModuleList(
          (0): GroupAll()
        )
        (mlps): ModuleList(
          (0): Sequential(
            (0): Conv2d(259, 256, kernel_size=(1, 1), stride=(1, 1), bias=False)
            (1): BatchNorm2d(256, eps=1e-05, momentum=0.1, affine=True, track_running_stats=True)
            (2): ReLU(inplace=True)
            (3): Conv2d(256, 256, kernel_size=(1, 1), stride=(1, 1), bias=False)
            (4): BatchNorm2d(256, eps=1e-05, momentum=0.1, affine=True, track_running_stats=True)
            (5): ReLU(inplace=True)
            (6): Conv2d(256, 256, kernel_size=(1, 1), stride=(1, 1), bias=False)
            (7): BatchNorm2d(256, eps=1e-05, momentum=0.1, affine=True, track_running_stats=True)
            (8): ReLU(inplace=True)
          )
        )
      )
    )
    (fc_layer2): Sequential(
      (0): Linear(in_features=256, out_features=128, bias=True)
      (1): BatchNorm1d(128, eps=1e-05, momentum=0.1, affine=True, track_running_stats=True)
      (2): ReLU(inplace=True)
    )
  )
  (sample_encoder): Sampler(
    (mlp1): Linear(in_features=128, out_features=256, bias=True)
    (mlp2mu): Linear(in_features=256, out_features=128, bias=True)
    (mlp2var): Linear(in_features=256, out_features=128, bias=True)
  )
  (sample_decoder): SampleDecoder(
    (mlp1): Linear(in_features=128, out_features=256, bias=True)
    (mlp2): Linear(in_features=256, out_features=128, bias=True)
  )
  (decoder): FCDecoder(
    (mlp1): Linear(in_features=128, out_features=1024, bias=True)
    (mlp2): Linear(in_features=1024, out_features=1024, bias=True)
    (mlp3): Linear(in_features=1024, out_features=6144, bias=True)
  )
)

training run exp-model_v2-fc-cd-vae
     Time    Epoch     Dataset    Iteration    Progress(%)       LR    CDLoss    KLDivLoss   TotalLoss
 00:00:01     0/1000    train        0/140         0.0%      1.00E-03    0.25091   5.46106   0.25145
Saving checkpoint ...... 
DONE
 00:00:04     0/1000     val         0/19          0.0%      1.00E-03    0.11213   0.41992   0.11217
…
