…
type fcupconv --loss_type cd --probabilistic --kldiv_loss_weight 1e-2 --model_version model_v3 --overwrite

Random Seed: 3124256514
Using device: cuda:0

[PartNetPartDataset 4489] data_dir: ../../data/PartNetShapeData-Chair/train, num_point: 2048
[PartNetPartDataset 617] data_dir: ../../data/PartNetShapeData-Chair/val, num_point: 2048
Using FCUpconvDecoder-NoBN!

Network(
  (encoder): PointNet2(
    (SA_modules): ModuleList(
      (0): PointnetSAModule(
        (groupers): ModuleList(
          (0): QueryAndGroup()
        )
        (mlps): ModuleList(
          (0): Sequential(
            (0): Conv2d(6, 64, kernel_size=(1, 1), stride=(1, 1), bias=False)
            (1): BatchNorm2d(64, eps=1e-05, momentum=0.1, affine=True, track_running_stats=True)
            (2): ReLU(inplace=True)
            (3): Conv2d(64, 64, kernel_size=(1, 1), stride=(1, 1), bias=False)
            (4): BatchNorm2d(64, eps=1e-05, momentum=0.1, affine=True, track_running_stats=True)
            (5): ReLU(inplace=True)
            (6): Conv2d(64, 128, kernel_size=(1, 1), stride=(1, 1), bias=False)
            (7): BatchNorm2d(128, eps=1e-05, momentum=0.1, affine=True, track_running_stats=True)
            (8): ReLU(inplace=True)
          )
        )
      )
      (1): PointnetSAModule(
        (groupers): ModuleList(
          (0): QueryAndGroup()
        )
        (mlps): ModuleList(
          (0): Sequential(
            (0): Conv2d(131, 128, kernel_size=(1, 1), stride=(1, 1), bias=False)
            (1): BatchNorm2d(128, eps=1e-05, momentum=0.1, affine=True, track_running_stats=True)
            (2): ReLU(inplace=True)
            (3): Conv2d(128, 128, kernel_size=(1, 1), stride=(1, 1), bias=False)
            (4): BatchNorm2d(128, eps=1e-05, momentum=0.1, affine=True, track_running_stats=True)
            (5): ReLU(inplace=True)
            (6): Conv2d(128, 256, kernel_size=(1, 1), stride=(1, 1), bias=False)
            (7): BatchNorm2d(256, eps=1e-05, momentum=0.1, affine=True, track_running_stats=True)
            (8): ReLU(inplace=True)
          )
        )
      )
      (2): PointnetSAModule(
        (groupers): ModuleList(
          (0): GroupAll()
        )
        (mlps): ModuleList(
          (0): Sequential(
            (0): Conv2d(259, 256, kernel_size=(1, 1), stride=(1, 1), bias=False)
            (1): BatchNorm2d(256, eps=1e-05, momentum=0.1, affine=True, track_running_stats=True)
            (2): ReLU(inplace=True)
            (3): Conv2d(256, 256, kernel_size=(1, 1), stride=(1, 1), bias=False)
            (4): BatchNorm2d(256, eps=1e-05, momentum=0.1, affine=True, track_running_stats=True)
            (5): ReLU(inplace=True)
            (6): Conv2d(256, 256, kernel_size=(1, 1), stride=(1, 1), bias=False)
            (7): BatchNorm2d(256, eps=1e-05, momentum=0.1, affine=True, track_running_stats=True)
            (8): ReLU(inplace=True)
          )
        )
      )
    )
    (fc_layer2): Sequential(
      (0): Linear(in_features=256, out_features=128, bias=True)
      (1): BatchNorm1d(128, eps=1e-05, momentum=0.1, affine=True, track_running_stats=True)
      (2): ReLU(inplace=True)
    )
  )
  (sample_encoder): Sampler(
    (mlp2mu): Linear(in_features=128, out_features=128, bias=True)
    (mlp2var): Linear(in_features=128, out_features=128, bias=True)
  )
  (sample_decoder): SampleDecoder(
    (mlp1): Linear(in_features=128, out_features=128, bias=True)
  )
  (decoder): FCUpconvDecoder(
    (mlp1): Linear(in_features=128, out_features=1024, bias=True)
    (mlp2): Linear(in_features=1024, out_features=1024, bias=True)
    (mlp3): Linear(in_features=1024, out_features=3072, bias=True)
    (deconv1): ConvTranspose2d(128, 1024, kernel_size=(2, 2), stride=(1, 1))
    (deconv2): ConvTranspose2d(1024, 512, kernel_size=(3, 3), stride=(1, 1))
    (deconv3): ConvTranspose2d(512, 256, kernel_size=(4, 4), stride=(2, 2))
    (deconv4): ConvTranspose2d(256, 128, kernel_size=(5, 5), stride=(3, 3))
    (deconv5): ConvTranspose2d(128, 3, kernel_size=(1, 1), stride=(1, 1))
  )
)

training run exp-model_v3-fcupconv-cd-vae-1e-2
     Time    Epoch     Dataset    Iteration    Progress(%)       LR    ReconLoss    KLDivLoss   TotalLoss
 00:00:01     0/1000    train        0/140         0.0%      1.00E-03   17.34875  31.31108  17.66186
Saving checkpoint ...... 
DONE
 00:00:05     0/1000     val         0/19          0.0%      1.00E-03    4.57825   1.01334   4.58838
…
